…
&lt;pre&gt;&lt;code&gt;from torchsummary import summary

# åˆ›å»ºæ¨¡å‹å®ä¾‹
model = LeNet(num_classes=10)

# å°†æ¨¡å‹æ”¾åˆ°è®¾å¤‡ä¸Š (CPU æˆ– GPU)
device = torch.device(&quot;cuda&quot; if torch.cuda.is_available() else &quot;cpu&quot;)
model.to(device)

# ä½¿ç”¨ torchsummary æ˜¾ç¤ºæ¨¡å‹æ‘˜è¦
summary(model, input_size=(1, 28, 28))
&lt;/code&gt;&lt;/pre&gt;
&lt;pre&gt;&lt;code&gt;----------------------------------------------------------------
        Layer (type)               Output Shape         Param #
================================================================
            Conv2d-1            [-1, 6, 28, 28]             156
              ReLU-2            [-1, 6, 28, 28]               0
         MaxPool2d-3            [-1, 6, 14, 14]               0
            Conv2d-4           [-1, 16, 10, 10]           2,416
              ReLU-5           [-1, 16, 10, 10]               0
         MaxPool2d-6             [-1, 16, 5, 5]               0
           Flatten-7                  [-1, 400]               0
            Linear-8                  [-1, 120]          48,120
              ReLU-9                  [-1, 120]               0
           Linear-10                   [-1, 84]          10,164
             ReLU-11                   [-1, 84]               0
           Linear-12                   [-1, 10]             850
          Softmax-13                   [-1, 10]               0
================================================================
Total params: 61,706
Trainable params: 61,706
Non-trainable params: 0
----------------------------------------------------------------
Input size (MB): 0.00
Forward/backward pass size (MB): 0.11
Params size (MB): 0.24
Estimated Total Size (MB): 0.35
----------------------------------------------------------------
&lt;/code&gt;&lt;/pre&gt;
…
